…
    "label_manager": "<nnseq2seq.utilities.label_handling.label_handling.LabelManager object at 0x00000230722F7F70>",
    "local_rank": "0",
    "log_file": "C:\\Users\\P095789\\OneDrive - Amsterdam UMC\\Documenten\\mri_seq2seq-main\\nnSeq2Seq_results\\Dataset520_NeckTumour\\nnSeq2SeqTrainer__nnSeq2SeqPlans__3d\\fold_0\\training_log_2025_3_3_14_19_32.txt",
    "logger": "<nnseq2seq.training.logging.nnseq2seq_logger.nnSeq2SeqLogger object at 0x00000230722F7E20>",
    "loss": "DeepSupervisionWrapper(\n  (loss): L1_SSIM_and_Perceptual_loss(\n    (l1): L1Loss()\n    (ssim): SSIMLoss()\n    (perceptual): AdaptivePerceptualLoss(\n      (vgg): Sequential(\n        (0): Conv2d(3, 64, kernel_size=(3, 3), stride=(1, 1), padding=(1, 1))\n        (1): ReLU(inplace=True)\n        (2): Conv2d(64, 64, kernel_size=(3, 3), stride=(1, 1), padding=(1, 1))\n        (3): ReLU(inplace=True)\n        (4): AvgPool2d(kernel_size=2, stride=2, padding=0)\n        (5): Conv2d(64, 128, kernel_size=(3, 3), stride=(1, 1), padding=(1, 1))\n        (6): ReLU(inplace=True)\n        (7): Conv2d(128, 128, kernel_size=(3, 3), stride=(1, 1), padding=(1, 1))\n        (8): ReLU(inplace=True)\n        (9): AvgPool2d(kernel_size=2, stride=2, padding=0)\n        (10): Conv2d(128, 256, kernel_size=(3, 3), stride=(1, 1), padding=(1, 1))\n        (11): ReLU(inplace=True)\n        (12): Conv2d(256, 256, kernel_size=(3, 3), stride=(1, 1), padding=(1, 1))\n        (13): ReLU(inplace=True)\n        (14): Conv2d(256, 256, kernel_size=(3, 3), stride=(1, 1), padding=(1, 1))\n        (15): ReLU(inplace=True)\n        (16): Conv2d(256, 256, kernel_size=(3, 3), stride=(1, 1), padding=(1, 1))\n        (17): ReLU(inplace=True)\n        (18): AvgPool2d(kernel_size=2, stride=2, padding=0)\n        (19): Conv2d(256, 512, kernel_size=(3, 3), stride=(1, 1), padding=(1, 1))\n        (20): ReLU(inplace=True)\n        (21): Conv2d(512, 512, kernel_size=(3, 3), stride=(1, 1), padding=(1, 1))\n        (22): ReLU(inplace=True)\n        (23): Conv2d(512, 512, kernel_size=(3, 3), stride=(1, 1), padding=(1, 1))\n        (24): ReLU(inplace=True)\n        (25): Conv2d(512, 512, kernel_size=(3, 3), stride=(1, 1), padding=(1, 1))\n        (26): ReLU(inplace=True)\n        (27): AvgPool2d(kernel_size=2, stride=2, padding=0)\n        (28): Conv2d(512, 512, kernel_size=(3, 3), stride=(1, 1), padding=(1, 1))\n        (29): ReLU(inplace=True)\n        (30): Conv2d(512, 512, kernel_size=(3, 3), stride=(1, 1), padding=(1, 1))\n        (31): ReLU(inplace=True)\n        (32): Conv2d(512, 512, kernel_size=(3, 3), stride=(1, 1), padding=(1, 1))\n        (33): ReLU(inplace=True)\n        (34): Conv2d(512, 512, kernel_size=(3, 3), stride=(1, 1), padding=(1, 1))\n        (35): ReLU(inplace=True)\n        (36): AvgPool2d(kernel_size=2, stride=2, padding=0)\n      )\n    )\n  )\n)",
    "lr_scheduler": "<nnseq2seq.training.lr_scheduler.polylr.WarmupCosineLRScheduler object at 0x0000023073179EA0>",
    "my_init_kwargs": "{'plans': {'dataset_name': 'Dataset520_NeckTumour', 'plans_name': 'nnSeq2SeqPl
…
